…
&lt;span class=&quot;n&quot;&gt;mlp&lt;/span&gt;&lt;span class=&quot;p&quot;&gt;.&lt;/span&gt;&lt;span class=&quot;n&quot;&gt;summary&lt;/span&gt;&lt;span class=&quot;p&quot;&gt;()&lt;/span&gt;
&lt;/code&gt;&lt;/pre&gt;&lt;/div&gt;&lt;/div&gt;

&lt;div class=&quot;language-plaintext highlighter-rouge&quot;&gt;&lt;div class=&quot;highlight&quot;&gt;&lt;pre class=&quot;highlight&quot;&gt;&lt;code&gt;MLP architecture:
_________________________________________________________________
Layer (type)                 Output Shape              Param #   
=================================================================
flatten_2 (Flatten)          (None, 3072)              0         
_________________________________________________________________
dense_3 (Dense)              (None, 1000)              3073000   
_________________________________________________________________
dropout_3 (Dropout)          (None, 1000)              0         
_________________________________________________________________
dense_4 (Dense)              (None, 512)               512512    
_________________________________________________________________
dropout_4 (Dropout)          (None, 512)               0         
_________________________________________________________________
dense_5 (Dense)              (None, 10)                5130      
=================================================================
Total params: 3,590,642
Trainable params: 3,590,642
Non-trainable params: 0
_________________________________________________________________
&lt;/code&gt;&lt;/pre&gt;&lt;/div&gt;&lt;/div&gt;

&lt;p&gt;Here we call on the build_mlp function we built earlier. Do you understand the MLP architecture? Let’s go over it together:&lt;/p&gt;
…
&lt;span class=&quot;n&quot;&gt;cnn&lt;/span&gt;&lt;span class=&quot;p&quot;&gt;.&lt;/span&gt;&lt;span class=&quot;n&quot;&gt;summary&lt;/span&gt;&lt;span class=&quot;p&quot;&gt;()&lt;/span&gt;
&lt;/code&gt;&lt;/pre&gt;&lt;/div&gt;&lt;/div&gt;

&lt;div class=&quot;language-plaintext highlighter-rouge&quot;&gt;&lt;div class=&quot;highlight&quot;&gt;&lt;pre class=&quot;highlight&quot;&gt;&lt;code&gt;CNN architecture:
_________________________________________________________________
Layer (type)                 Output Shape              Param #   
=================================================================
conv2d_1 (Conv2D)            (None, 32, 32, 16)        208       
_________________________________________________________________
max_pooling2d_1 (MaxPooling2 (None, 16, 16, 16)        0         
_________________________________________________________________
conv2d_2 (Conv2D)            (None, 16, 16, 32)        2080      
_________________________________________________________________
max_pooling2d_2 (MaxPooling2 (None, 8, 8, 32)          0         
_________________________________________________________________
conv2d_3 (Conv2D)            (None, 8, 8, 64)          8256      
_________________________________________________________________
max_pooling2d_3 (MaxPooling2 (None, 4, 4, 64)          0         
_________________________________________________________________
dropout_1 (Dropout)          (None, 4, 4, 64)          0         
_________________________________________________________________
flatten_1 (Flatten)          (None, 1024)              0         
_________________________________________________________________
dense_1 (Dense)              (None, 500)               512500    
_________________________________________________________________
dropout_2 (Dropout)          (None, 500)               0         
_________________________________________________________________
dense_2 (Dense)              (None, 10)                5010      
=================================================================
Total params: 528,054
Trainable params: 528,054
Non-trainable params: 0
_________________________________________________________________
&lt;/code&gt;&lt;/pre&gt;&lt;/div&gt;&lt;/div&gt;

&lt;p&gt;As we did for your MLP, we print out a summary of our CNN architecture and try to explain the numbers we are seeing. Each image e
…
&lt;span class=&quot;n&quot;&gt;optimized_cnn&lt;/span&gt;&lt;span class=&quot;p&quot;&gt;.&lt;/span&gt;&lt;span class=&quot;n&quot;&gt;summary&lt;/span&gt;&lt;span class=&quot;p&quot;&gt;()&lt;/span&gt;
&lt;/code&gt;&lt;/pre&gt;&lt;/div&gt;&lt;/div&gt;
&lt;div class=&quot;language-plaintext highlighter-rouge&quot;&gt;&lt;div class=&quot;highlight&quot;&gt;&lt;pre class=&quot;highlight&quot;&gt;&lt;code&gt;Optimized CNN architecture:
_________________________________________________________________
Layer (type)                 Output Shape              Param #   
=================================================================
conv2d_40 (Conv2D)           (None, 32, 32, 32)        896       
_________________________________________________________________
batch_normalization_25 (Batc (None, 32, 32, 32)        128       
_________________________________________________________________
conv2d_41 (Conv2D)           (None, 32, 32, 32)        9248      
_________________________________________________________________
batch_normalization_26 (Batc (None, 32, 32, 32)        128       
_________________________________________________________________
max_pooling2d_28 (MaxPooling (None, 16, 16, 32)        0         
_________________________________________________________________
dropout_39 (Dropout)         (None, 16, 16, 32)        0         
_________________________________________________________________
conv2d_42 (Conv2D)           (None, 16, 16, 64)        18496     
_________________________________________________________________
batch_normalization_27 (Batc (None, 16, 16, 64)        256       
_________________________________________________________________
conv2d_43 (Conv2D)           (None, 16, 16, 64)        36928     
_________________________________________________________________
batch_normalization_28 (Batc (None, 16, 16, 64)        256       
_________________________________________________________________
max_pooling2d_29 (MaxPooling (None, 8, 8, 64)          0         
_________________________________________________________________
dropout_40 (Dropout)         (None, 8, 8, 64)          0         
_________________________________________________________________
conv2d_44 (Conv2D)           (None, 8, 8, 128)         73856     
_________________________________________________________________
batch_normalization_29 (Batc (None, 8, 8, 128)         512       
_________________________________________________________________
conv2d_45 (Conv2D)           (None, 8, 8, 128)         147584    
_________________________________________________________________
batch_normalization_30 (Batc (None, 8, 8, 128)         512       
_________________________________________________________________
max_pooling2d_30 (MaxPooling (None, 4, 4, 128)         0         
_________________________________________________________________
dropout_41 (Dropout)         (None, 4, 4, 128)         0         
_________________________________________________________________
flatten_18 (Flatten)         (None, 2048)              0         
_________________________________________________________________
dense_39 (Dense)             (None, 10)                20490     
=================================================================
Total params: 309,290
Trainable params: 308,394
Non-trainable params: 896
_________________________________________________________________
&lt;/code&gt;&lt;/pre&gt;&lt;/div&gt;&lt;/div&gt;

&lt;p&gt;Here we build our more advanced cnn (at least in terms of architecture, we’ll see about the results later). As you see, there’s quite a bit more going on, and we have quite a few parameters again.&lt;/p&gt;
…
